data/1-model-state.pth (torch, 2083 bytes, 5 tensors)

lstm.weight_ih_l0 f4 [12, 5]
00000000: 0392 ca3e 6c90 103f 36fd 923e 41d3 75be
00000010: 848d d83d 4f96 0a3f 3ac0 023f 9ec7 333f
00000020: 5adc acbe acfe 943e 0dd4 953e 38f3 18bf
00000030: d692 b5be d6e5 8abf 3b88 8e3d 8836 6dbe
00000040: 1a85 103f d60d 63be 0e92 033e c0ef b9be
00000050: 6e1a c73d 2bbf e8be 9450 febe 5eb6 94be
00000060: ac28 aabe f7de 963e a21b bebe 94c8 36be
00000070: a742 203e be0d e63e 260c 963e cfaa 3f3f
00000080: a91e a03e fe01 093f 8097 a93e 3f58 df3d
00000090: bcff 873e 01cd 643e ae58 e6bf 74f2 333e
000000a0: 6bf3 bd3d e9c3 92be c615 bebd 84a1 af3e
000000b0: 7bc6 f2be e535 083f 0501 f03e d9d9 223e
000000c0: 59a8 06be ac4f 613f ebca 7c3c 693e ca3e
000000d0: 6c1f 8c3f 98e3 3f3e 900d 963f 5dc6 3f3d
000000e0: 3c76 743e 626d febe d0a3 17bf ffb6 38be
0.39564523 0.5647037 0.2870881 -0.24006368 0.10573867 0.541356 0.51074564 0.70226467
-0.33761865 0.2910055 0.29263344 -0.5974612 -0.3546359 -1.085139 0.06959578 -0.23165333
0.56453097 -0.22173247 0.12848684 -0.36315727 0.09721838 -0.4545835 -0.4967085 -0.29045385
-0.33234155 0.29466984 -0.37130457 -0.17849952 0.15650426 0.4493236 0.29306144 0.7487001
0.31273392 0.53518665 0.33123398 0.109055035 0.26562297 0.22343828 -1.7995813 0.17572957
0.09274944 -0.28665093 -0.09281497 0.34302914 -0.47417054 0.53207237 0.46875778 0.15903415
-0.13150157 0.88012195 0.015429239 0.3950074 1.0947089 0.18739164 1.1722889 0.046820033
0.23873228 -0.49692827 -0.59234333 -0.18038557

lstm.weight_hh_l0 f4 [12, 3]
00000000: f081 a13e 2478 afbe ab4a 6fbe aca0 05bf
00000010: 22b5 0abe 5365 e2be 6e09 cfbe ceab c7be
00000020: 199c 0ebf 3a3c 4c3e f2ec 143e 4992 b13e
00000030: 0923 fabd ead2 813d 233d 08bf 2a5a acbe
00000040: 39e0 d9bd 9c64 bbbb 2447 11bf 4bd8 9cbd
00000050: 637d 103e 62c7 123f 61f7 323e 6138 0c3f
00000060: a82c cfbd 4c2e 003f 4cb3 723e e4c8 c93e
00000070: a356 fc3d aba8 da3e c7b4 a93d ccdc ed3e
00000080: da30 f3be 039e afbe 4b7d 01bf b382 833d
0.31544447 -0.34271348 -0.23368327 -0.5219829 -0.13545659 -0.4421793 -0.40436882 -0.38998264
-0.55706936 0.1994485 0.14543512 0.3468192 -0.12213714 0.06339057 -0.5321829 -0.3366254
-0.1063847 -0.0057187807 -0.56749177 -0.07658442 0.14110331 0.57335484 0.1747718 0.5477353
-0.101159394 0.50070643 0.23701209 0.3941108 0.12321212 0.42706808 0.08286434 0.46457517
-0.47498208 -0.3430024 -0.50581807 0.06421413

lstm.bias_ih_l0 f4 [12]
00000000: 79da 7b3f a4a9 123f c080 07be b1e1 e4be
00000010: 8692 8ebe 24b8 8f3e 4292 183e ed13 963e
00000020: 59f2 0ebf 4964 a63d 63bc e73e 3d07 763e
0.9838024 0.572901 -0.13232708 -0.4470344 -0.27846164 0.28070176 0.14899543 0.29312077
-0.55838543 0.081245966 0.45260915 0.24026199

lstm.bias_hh_l0 f4 [12]
00000000: 3861 a53e 4de6 073f 6a5f fbbd be6f 6c3e
00000010: acd8 b63e f2f2 553e ed29 763e ca88 5c3e
00000020: 1018 08be 2f9a 9c3e b769 263e 22fa 253f
0.32300735 0.53085786 -0.12274058 0.23089501 0.35712183 0.20893458 0.24039431 0.21536556
-0.13290429 0.30586383 0.16251265 0.648348

fc.weight f4 [1, 3]
00000000: 46f8 543f 9266 2ebf e0a2 373f
0.83191335 -0.6812526 0.717329
