data/4-model-state.pth (torch, 2659 bytes, 5 tensors)

lstm.weight_ih_l0 f4 [20, 6]
0	0x3d8386a9	0.06422169
1	0x3dcb03e9	0.09912855
2	0xbd8bd253	-0.068272255
3	0x3ed57cec	0.4169687
4	0x3e201c32	0.15635756
5	0x3ee06253	0.43825015
6	0xbd509fad	-0.05093353
7	0xbecd6a0e	-0.40119976
8	0x3ee97a3e	0.45601076
9	0x3d9260cf	0.07147371
10	0x3c439029	0.011936226
11	0x3e99b6e0	0.30022335
12	0x3efa4b72	0.48885685
13	0x3f05f047	0.5231976
14	0x3f014d2f	0.505084
15	0xbe1b16b8	-0.15145385
16	0x3ec9223a	0.39283925
17	0x3f1cda64	0.6127074
18	0xbd7cafa4	-0.06169094
19	0xbe5d7ace	-0.21628878
20	0x3e9021dd	0.28150836
21	0xbef43914	-0.47699797
22	0x3e0fc226	0.14038906
23	0xbe99b01a	-0.30017167
24	0x3ea00d1c	0.31260002
25	0x3ddbb79f	0.10728382
26	0xbd92a0b7	-0.0715956
27	0x3e3c1b5e	0.18369815
28	0x3f3a399b	0.7274415
29	0x3f22cd1a	0.6359421
30	0xbd1e8eac	-0.03871028
31	0xbe55d300	-0.20881271
32	0xbd175ff4	-0.036956742
33	0x3ec9024a	0.3925956
34	0x3ecd2eb6	0.400747
35	0xbe6a5eb1	-0.22887684
36	0x3dc66637	0.09687465
37	0x3d6b8b7c	0.05750607
38	0x3ec97be9	0.39352348
39	0x3ed72e34	0.42027438
40	0x3dc22242	0.094791904
41	0xbd9c938f	-0.07645332
42	0xbd8fd914	-0.07023826
43	0x3e6a43b8	0.22877395
44	0xbe2abd10	-0.16673684
45	0xbd7e305f	-0.06205785
46	0x3e82ae44	0.2552358
47	0x3e43fcc8	0.19139397
48	0x3ea62b52	0.32454926
49	0xbd1d3761	-0.03838289
50	0x3eb41bf2	0.3517757
51	0x3e040660	0.12893057
52	0x3d898f8e	0.06716834
53	0x3e720c7d	0.23637576
54	0x3e605f8a	0.21911445
55	0x3e6729bf	0.22574519
56	0x3e0dba17	0.13840519
57	0xbec118de	-0.37714285
58	0x3ed63c60	0.41842937
59	0x3ea89ef5	0.32933775
60	0xbeedbe8b	-0.46434435
61	0xbed2230c	-0.41042364
62	0xbeba3ff4	-0.36376917
63	0xbf1b1eba	-0.6059376
64	0xbe008d45	-0.1255389
65	0xbeb74727	-0.35796472
66	0xbd24b616	-0.040212713
67	0x3eecd365	0.4625503
68	0x3e8654ae	0.2623648
69	0x3e7572b3	0.23969536
70	0xbcabd9df	-0.020977912
71	0x3dfff7a2	0.12498404
72	0x3e5570b0	0.20843768
73	0xbd37aace	-0.044840626
74	0x3c993ed1	0.018706711
75	0xbf576e63	-0.8415281
76	0x3eb407c8	0.35162187
77	0x3c905e9e	0.017623242
78	0xbdbc6172	-0.09198274
79	0xbdbc8ecb	-0.09206923
80	0x3db7f2b9	0.089818425
81	0xbf05cd41	-0.5226632
82	0x3e185d70	0.14879394
83	0x3e9d6e81	0.3074837
84	0x3e096fa8	0.134215
85	0xbe9dec0a	-0.30844146
86	0xbde7f0ff	-0.11325263
87	0x3f59683b	0.8492467
88	0x3e9a1979	0.3009756
89	0xbde4ddfa	-0.11175151
90	0xbdf4151c	-0.11918089
91	0xbd78cc61	-0.060741786
92	0x3e832788	0.25616097
93	0x3f2a9aad	0.66642267
94	0xbe0745b5	-0.13210185
95	0x3d4d16c5	0.050070543
96	0x3d955df4	0.07293311
97	0xbe3f7ac4	-0.18699175
98	0xbde39f97	-0.11114424
99	0x3f416850	0.75549793
100	0x3edeaa21	0.43489173
101	0x3e29dbef	0.16587804
102	0x3f0bbd9e	0.5458621
103	0x3ed4defc	0.41576374
104	0x3eec940d	0.46206704
105	0xbd97c27c	-0.07410142
106	0x3eedd888	0.46454263
107	0x3df8c9f8	0.121478975
108	0x3e94e5ca	0.29081565
109	0xbed256ed	-0.41081944
110	0x3d719333	0.05897827
111	0xbec4fd57	-0.38474533
112	0x3e09219a	0.13391724
113	0xbc057b08	-0.008147009
114	0x3bb69e14	0.0055730436
115	0xbe09b11d	-0.1344647
116	0x3e583bc4	0.21116549
117	0x3f2a6360	0.66557884
118	0x3eb4e3c7	0.3533003
119	0x3dda858e	0.10670005

lstm.weight_hh_l0 f4 [20, 5]
0	0xbe80e95d	-0.25178042
1	0xbe8d0b43	-0.27547655
2	0xbeaaecce	-0.33383793
3	0x3d84f13c	0.06491324
4	0xbec3f86f	-0.38275477
5	0x3ed97edc	0.424796
6	0xbecf4f60	-0.40490246
7	0x3de5372d	0.111921646
8	0x3dfb79ef	0.12279116
9	0x3dba1ddb	0.09087726
10	0x3dbff973	0.093737505
11	0xbe97f34f	-0.29677817
12	0x3ec950dc	0.39319503
13	0xbd75552b	-0.059895676
14	0xbea188a5	-0.31549564
15	0xbe21c7b2	-0.15798834
16	0x3e69c114	0.2282756
17	0x3e740072	0.23828295
18	0xbe9d004f	-0.30664298
19	0x3d24e0cd	0.04025345
20	0x3e4ac142	0.19800285
21	0x3ea74c23	0.32675275
22	0xbe81b269	-0.2533143
23	0xbd699c4f	-0.057033833
24	0xbe3ceba2	-0.18449262
25	0x3eadf0cb	0.33972773
26	0xbe31494a	-0.17313114
27	0x3ebff147	0.37488768
28	0xbe9652f6	-0.2936017
29	0x3ecf576b	0.40496382
30	0x3ea4ae83	0.32164392
31	0xbe91b50d	-0.28458443
32	0x3ecef11c	0.40418327
33	0xbd6076de	-0.05480086
34	0xbe086ccf	-0.13322757
35	0x3e88dd37	0.26731274
36	0xbdb2ac15	-0.08724228
37	0xbebc5db1	-0.3679023
38	0xbe9068ad	-0.2820486
39	0xbdf33843	-0.118759654
40	0x3e6718ba	0.22568026
41	0xbd8a11c7	-0.06741672
42	0xbe9ffafb	-0.3124617
43	0xbe938d58	-0.28818774
44	0x3e85613f	0.26050755
45	0xbec9328f	-0.39296386
46	0xbea1f112	-0.31629235
47	0x3e15181d	0.1455998
48	0xbece60ff	-0.40308377
49	0xbeac70aa	-0.33679706
50	0x3eb4fd20	0.3534937
51	0xbe72ab67	-0.23698197
52	0x3b25af87	0.0025281624
53	0x3e8183d6	0.25295895
54	0xbed92c34	-0.42416537
55	0x3ea71984	0.32636654
56	0x3cc32b26	0.023824286
57	0xbe9ad29d	-0.3023881
58	0x3ecf4aa8	0.40486646
59	0xbea952d4	-0.33071005
60	0xbe427195	-0.1898864
61	0xbebf44cf	-0.37357184
62	0xbdd3e41a	-0.10346241
63	0x3d8118e3	0.06303575
64	0x3cc5a42e	0.024126139
65	0x3d5edbc4	0.054408804
66	0x3e454774	0.19265538
67	0x3e9f64da	0.3113163
68	0xbe7c5339	-0.24641122
69	0xbe78cebf	-0.24297617
70	0x3ebd6f0a	0.3699878
71	0x3df4c0a3	0.11950805
72	0x3e5e1e5f	0.21691273
73	0xbe2bd961	-0.16782142
74	0x3e981bad	0.29708615
75	0xbe245ea6	-0.1605173
76	0x3e774d87	0.24150668
77	0xbe191d4f	-0.14952587
78	0xbeca46f9	-0.39507273
79	0x3c989517	0.01862578
80	0xbde5ead1	-0.11226428
81	0xbe8a8f59	-0.2706249
82	0xbeb7487d	-0.35797492
83	0x3c8a76ef	0.016902415
84	0x3e691f9f	0.22765969
85	0x3ec6e5d5	0.38847223
86	0xbc406369	-0.011742451
87	0x3ed77da8	0.42088056
88	0xbebc46f1	-0.36772874
89	0xbecec06c	-0.4038118
90	0xbe0f9f2a	-0.1402556
91	0x3e6dc99c	0.23221439
92	0xbe12f440	-0.14350986
93	0xbe47c760	-0.1950965
94	0xbd9460a5	-0.07244996
95	0xbe8c4ca4	-0.27402222
96	0x3db9339a	0.09043045
97	0xbe5ac17c	-0.21362871
98	0xbeb445af	-0.35209414
99	0xbd076e1f	-0.033064004

lstm.bias_ih_l0 f4 [20]
0	0xbdb1aef0	-0.08675945
1	0x3e34c849	0.17654528
2	0xbd12699b	-0.035745244
3	0x3e9af390	0.30263948
4	0xbd943389	-0.07236392
5	0x3ec2b90a	0.380318
6	0x3e8500fe	0.2597732
7	0xbd617cef	-0.055050787
8	0x3dd8dba4	0.10588768
9	0xbe8de057	-0.2771022
10	0xbdd775a9	-0.10520489
11	0x3db4803f	0.088135235
12	0x3d829e87	0.06377893
13	0x3ee9da49	0.4567435
14	0x3d3b6dbb	0.045758944
15	0x3f036168	0.51320505
16	0x3d16999b	0.036767583
17	0x3f369a1d	0.7132891
18	0x3f36e534	0.71443486
19	0x3f1ef68d	0.62094957

lstm.bias_hh_l0 f4 [20]
0	0x3d019c04	0.03164293
1	0x3f0b202a	0.54345953
2	0xbc35772e	-0.011075778
3	0x3e9c78ff	0.30561063
4	0x3ed560bc	0.41675365
5	0xbe849b13	-0.25899562
6	0xbc93972d	-0.018016422
7	0xbe300496	-0.1718925
8	0x3e4b62ea	0.19861951
9	0x3ebca0c3	0.368414
10	0xbea60314	-0.32424223
11	0x3d0880cf	0.033325966
12	0x3dbfc12d	0.09363017
13	0xbc881d09	-0.016615408
14	0xbd09bc10	-0.033626616
15	0x3f0d11bd	0.5510519
16	0x3e5fb963	0.21848063
17	0xbd808fd2	-0.062774315
18	0x3e9afa5b	0.3026913
19	0x3ebc747a	0.36807615

fc.weight f4 [1, 5]
0	0xbf0ad756	-0.54234827
1	0x3f01d244	0.50711465
2	0xbf2ff941	-0.68739706
3	0xbf218cfe	-0.6310576
4	0x3f430933	0.7618591
